lenet.pt (torch, 4413 bytes, 4 tensors)

features.0.weight f4 [1, 1, 5, 5]
0.0071478486 0.29580593 0.18436351 0.20359828 0.067070775 0.3516795 0.25583503 0.15462677
0.22947817 0.3022369 -0.3092665 0.08044234 0.26440927 0.34657735 0.51310444 -0.37650377
-0.13889956 -0.12812367 -0.18300924 -0.04156905 -0.56459606 -0.5992601 -0.55860156 -0.5896012
-0.22729188
00000000: 8038 ea3b e073 973e cac9 3c3e 117c 503e
00000010: 675c 893d 560f b43e cffc 823e 7b56 1e3e
00000020: 53fc 6a3e ccbe 9a3e 2e58 9ebe f4be a43d
00000030: a760 873e 9672 b13e d05a 033f 1ac5 c0be
00000040: b03b 0ebe da32 03be c666 3bbe 4f44 2abd
00000050: 5e89 10bf 1c69 19bf 8300 0fbf 1bf0 16bf
00000060: 34bf 68be

features.3.weight f4 [1, 1, 5, 5]
-0.07710436 0.068574935 0.2590172 0.11787962 -0.09333101 -0.05025042 0.5562959 0.40408605
0.22062452 0.031110315 0.32455227 0.46721545 0.71360093 0.25805333 0.3849178 0.4319671
0.53303623 0.61020684 0.20156747 0.16373837 0.0955756 0.12914097 -0.23706098 -0.39741322
-0.14832245
00000000: e4e8 9dbd 0471 8c3d e79d 843e df6a f13d
00000010: 5424 bfbd 62d3 4dbd 6869 0e3f 5ee4 ce3e
00000020: 65eb 613e 0fdb fe3c b72b a63e dd36 ef3e
00000030: 8dae 363f 911f 843e f213 c53e cb2a dd3e
00000040: 1075 083f 8436 1c3f b467 4e3e 08ab 273e
00000050: 24bd c33d 883d 043e 1dc0 72be bf79 cbbe
00000060: d7e1 17be

classifier.1.weight f4 [10, 25]
-0.19988768 0.1100464 -0.29299754 0.018896177 0.042381305 -0.041731082 -0.48770148 0.31371698
0.25650522 0.028524296 -0.13571617 -0.15448613 -0.29715526 0.07697802 -0.13600554 0.021423886
0.05179492 -0.50395155 -0.33918795 0.5332707 0.073039815 0.11211633 0.0076251784 0.18421665
0.25881988 0.38795054 -0.2257422 0.29457757 -1.0330522 0.40548834 -0.21409528 -0.06650911
0.06719888 -0.20867988 -0.19887947 0.51862127 -0.5913897 0.07088838 -0.22466211 0.14816067
-0.21694684 -0.6013179 0.45063353 0.038318235 -0.47405213 0.044306416 -0.15291081 0.5520494
-0.13257699 0.03266349 0.0915066 -0.005230804 0.034165595 0.21479613 -0.07118288 0.059754897
0.17878035 0.07569866 -0.104993716 -0.20910431 -0.18432511 -0.14768398 -0.20573209 -0.18021682
0.024848353 -0.18709837 0.020207502 0.11541991 -0.10220797 0.22438323 0.25200257 -0.014896343
-0.0091290185 -0.067868814 0.33864692 0.007633987 0.1947531 0.2654665 -0.040818173 -0.393377
0.32153592 0.09421521 -0.054700185 -0.081171 0.042159773 -0.103068605 0.02081982 0.17162159
0.19786157 -0.22899887 -0.12886786 0.027697984 0.20251682 -0.118308425 -0.221873 0.44842157
-0.20248337 -0.06785115 -0.031497993 -0.20479655 -0.048026063 0.14156462 -0.5777191 -0.1045454
-0.10970249 -0.10307869 -0.15912233 -0.21638605 -0.25005984 -0.37017375 0.15674847 0.20544653
-0.13621345 -0.033590097 0.043238897 0.23461077 0.27096966 0.013423743 0.2176158 0.03754726
0.03864162 -0.15358616 -0.061679922 0.11725106 -0.17861503 -0.3993294 0.1402553 -0.036946747
0.030144656 0.37075695 -0.008550837 0.0035045838 -0.14363699 0.18645516 0.24411805 -0.001002121
0.20508358 0.052327555 0.11805357 0.052335676 -0.057053875 -0.0031441525 0.07565092 -0.0582675
-0.51044416 -0.095482685 0.053476047 -0.12623954 -0.0347983 0.22074468 -0.04676812 -0.42905602
-0.2263687 0.19858952 0.4128376 -0.063177295 -0.3109181 -0.3759328 -0.20246376 0.03673275
-0.43857858 -0.089159355 -0.29888305 0.11299177 0.12201112 0.17855893 -0.15346678 -0.11628869
0.10348046 0.31353226 -0.5349808 0.173777 0.18313192 0.37629077 0.28184852 0.2957868
0.22331204 -0.21368648 0.037891608 -0.31446365 0.106522515 0.22998329 0.38899896 0.23944978
-0.16050605 0.19749479 -0.060922023 0.03764988 -0.065218724 -0.18199229 0.36561403 -0.15013815
-0.19126333 -0.015893606 0.40639314 -0.068171956 -0.3459856 -0.027975809 -0.06910055 -0.7894926
-0.47878447 -0.1724573 0.087789886 0.15526438 0.05611607 0.0059037586 0.14164564 -0.065200984
-0.13983157 0.049623806 0.33668995 -0.13741432 -0.1576729 -0.015509479 0.49311924 -0.41958773
0.04915307 0.1694807 -0.0098487735 -0.36074853 -0.11465604 0.11225732 0.1834908 0.06370291
-0.13569881 0.10467811 -0.24426295 -0.03345182 0.27577937 0.0043281354 -0.09622568 0.049360916
0.09037386 0.17029382 -0.43889934 0.013121473 0.2862972 0.071766615 -0.08095411 -0.013135782
0.19223362 0.18393983 0.1329071 -0.054024488 -0.26284263 -0.070514865 0.10477014 -0.3331668
-0.24603258 -0.08067777
00000000: 5baf 4cbe 0260 e13d c603 96be 28cc 9a3c
00000010: 0598 2d3d 36ee 2abd 02b4 f9be 839f a03e
00000020: a754 833e c9ab e93c 2ef9 0abe 9d31 1ebe
00000030: bc24 98be a7a6 9d3d 0945 0bbe 2581 af3c
00000040: e926 543d f802 01bf 0baa adbe 6e84 083f
00000050: e695 953d 3f9d e53d a2dc f93b 4aa3 3c3e
00000060: 0a84 843e 74a1 c63e f728 67be dfd2 963e
00000070: 0e3b 84bf 2b9c cf3e cb3b 5bbe ee35 88bd
00000080: 919f 893d 2eb0 55be 0fa7 4bbe 5dc4 043f
00000090: 5165 17bf ed2d 913d d30d 66be 6eb7 173e
000000a0: 5027 5ebe f8ef 19bf 70b9 e63e 95f3 1c3d
000000b0: f6b6 f2be a57a 353d a794 1cbe 1c53 0d3f
000000c0: 43c2 07be 27ca 053d d067 bb3d 2a67 abbb
000000d0: 39f1 0b3d 84f3 5b3e 54c8 91bd 8dc1 743d
000000e0: 3212 373e e607 9b3d f206 d7bd 711f 56be
000000f0: b9bf 3cbe 783a 17be 6fab 52be c28a 38be
00000100: c68e cb3c b796 3fbe 348a a53c 4661 ec3d
00000110: 6a52 d1bd b8c4 653e 7b06 813e cb0f 74bc
00000120: e191 15bc cefe 8abd 2163 ad3e 8626 fa3b
00000130: 5b6d 473e 3aeb 873e f530 27bd b668 c9be
00000140: 5ba0 a43e e7f3 c03d 4d0d 60bd fb3c a6bd
00000150: baaf 2c3d a215 d3bd 548e aa3c 92bd 2f3e
00000160: 399c 4a3e ae7e 6abe f0f5 03be e2e6 e23c
00000170: 9260 4f3e b04b f2bd ad32 63be 8397 e53e
00000180: cd57 4fbe 8bf5 8abd 0a04 01bd 30b6 51be
00000190: fab6 44bd 51f6 103e 66e5 13bf e61b d6bd
000001a0: b3ab e0bd ec1a d3bd f7f0 22be 4e94 5dbe
000001b0: d807 80be 6a87 bdbe ac82 203e 9360 523e
000001c0: 8a7b 0bbe c595 09bd 451b 313d ce3d 703e
000001d0: 89bc 8a3e 42ef 5b3c add6 5e3e 28cb 193d
000001e0: ad46 1e3d b145 1dbe 16a4 7cbd 5321 f03d
000001f0: dce6 36be e774 ccbe 169f 0f3e 7955 17bd
00000200: edf1 f63c dbd3 bd3e cf18 0cbc 29ad 653b
00000210: 9315 13be 1aee 3e3e 15fa 793e 9a59 83ba
00000220: 6e01 523e 6b55 563d 12c6 f13d ef5d 563d
00000230: 53b1 69bd 200e 4ebb dfee 9a3d e7a9 6ebd
00000240: 78ac 02bf 6d8c c3bd b309 5b3d f044 01be
00000250: aa88 0ebd e50a 623e ee8f 3fbd 3bad dbbe
00000260: 32cd 67be 0d5b 4b3e 735f d33e 1963 81bd
00000270: a830 9fbe 447a c0be a952 4fbe 1475 163d
00000280: 5f8d e0be 2e99 b6bd 3307 99be 3b68 e73d
00000290: f7e0 f93d 27d8 363e 6526 1dbe c428 eebd
000002a0: 90ed d33d 4d87 a03e 80f4 08bf 99f2 313e
000002b0: ef86 3b3e 2fa9 c03e 734e 903e 5e71 973e
000002c0: e9ab 643e a1d0 5abe 3b34 1b3d 6101 a1be
000002d0: 7a28 da3d bd80 6b3e df2a c73e 5332 753e
000002e0: b35b 24be 133c 4a3e 5f89 79bd c336 1a3d
000002f0: 6591 85bd 305c 3abe c331 bb3e d1bd 19be
00000300: 89da 43be 4f33 82bc c312 d03e bd9d 8bbd
00000310: 0625 b1be 862d e5bc 9784 8dbd 301c 4abf
00000320: 3d23 f5be a598 30be 2fcb b33d a0fd 1e3e
00000330: f7d9 653d 5174 c13b 8e0b 113e 1888 85bd
00000340: 0230 0fbe 5542 4b3d a062 ac3e 57b6 0cbe
00000350: 0175 21be 781b 7ebc 207a fc3e 34d4 d6be
00000360: bb54 493d 598c 2d3e c05c 21bc 08b4 b8be
00000370: c9d0 eabd 2ae7 e53d 03e5 3b3e ac76 823d
00000380: a1f4 0abe 7a61 d63d 1120 7abe c704 09bd
00000390: f432 8d3e 08d3 8d3b f811 c5bd ac2e 4a3d
000003a0: ee15 b93d 8161 2e3e 6ab7 e0be 72fb 563c
000003b0: 8c95 923e 60fa 923d 45cb a5bd 7737 57bc
000003c0: e4d8 443e b95a 3c3e cc18 083e c848 5dbd
000003d0: 4f93 86be 196a 90bd ba91 d63d d794 aabe
000003e0: f7ef 7bbe 633a a5bd

classifier.1.bias f4 [10]
0.11018545 2.6623504 -0.4506599 -1.1318982 0.7144144 -1.4154831 -0.6323604 0.9322124
-0.46138024 0.21179517
00000000: e9a8 e13d f363 2a40 e5bc e6be 0ae2 90bf
00000010: dde3 363f 8d2e b5bf 5fe2 21bf 79a5 6e3f
00000020: 083a ecbe d5e0 583e
