lenet.pt (torch, 4029 bytes, 4 tensors)

features.0.weight f4 [1, 1, 5, 5]
000000 cc e7 ae 3c 6d 9d 95 be 5b 41 ad be 9b 09 22 bd
       0.021350764 -0.2922167 -0.33838925 -0.03955994
000010 06 7e 06 bd 60 41 23 3e 2c 21 09 3e 75 12 e9 3c
       -0.03283503 0.15942907 0.1339156 0.028451184
000020 e4 a8 10 3e 77 49 e0 3c 2d 20 50 3d 07 49 cf 3d
       0.14126927 0.02737878 0.050811935 0.10121351
000030 b6 fb b0 3e 90 5a 9a 3e 78 c6 8c 3d 8b 55 c7 3e
       0.3456704 0.3014722 0.068737924 0.38932452
000040 1e 19 03 3f 50 ef 7b 3e e0 ac 8e 3d ee 46 ad 3b
       0.512102 0.24603009 0.06966567 0.0052879965
000050 11 75 29 bf 37 3e ba be f7 6f 89 be 92 4e f3 3e
       -0.66194254 -0.3637559 -0.26843235 0.47520882
000060 91 49 50 3f
       0.81362253

features.3.weight f4 [1, 1, 5, 5]
000000 c6 72 aa 3e 40 d6 91 3e 75 a4 ff 3e bd 56 da 3e
       0.3329069 0.28483772 0.49930158 0.426443
000010 62 24 ce 3d 03 d7 79 3e 0e d3 fb 3e c6 af a8 3e
       0.10065533 0.24398427 0.4918446 0.32946604
000020 1b 32 65 3e 1f ea fe 3e 20 79 1f bf e6 24 70 be
       0.22382395 0.49787995 -0.622942 -0.23451576
000030 f7 d0 eb bd 64 38 b2 3e 99 5a 53 3f 36 18 36 bf
       -0.11514466 0.34808648 0.82560116 -0.7113069
000040 3c 2b 49 bf 06 52 b3 be 20 c3 d1 3e 63 bd 3d 3e
       -0.78581595 -0.35023516 0.4096918 0.18529277
000050 3a 97 04 3e bf a9 34 bd 00 31 12 3d 69 50 d3 3d
       0.12948313 -0.044107195 0.03569126 0.103180714
000060 34 c7 85 be
       -0.26128542

classifier.1.weight f4 [10, 16]
000000 94 59 b2 3c 72 ff 8a be f3 86 b5 3d e9 71 ea bd
       0.02177123 -0.27148014 0.0886363 -0.11447508
000010 bb c5 88 be 0f b9 63 be f1 39 7e 3e 64 62 93 3e
       -0.26713356 -0.22238563 0.2482679 0.28786004
000020 5c 0f de bd b2 07 dc be 38 43 b2 3e 07 67 e8 be
       -0.10842773 -0.4297462 0.3481691 -0.45391104
000030 c4 4d 55 3e e3 c9 e7 bd 49 ec 03 bf d5 96 52 bd
       0.20830446 -0.11317804 -0.5153242 -0.051413376
000040 a2 d3 c2 be da c1 f3 3e 8b 52 b7 be 78 96 30 bf
       -0.38052088 0.47608835 -0.35805163 -0.689796
000050 33 37 e7 3d 73 b4 61 3e 17 d9 86 bf a2 52 98 3d
       0.11289825 0.22041492 -1.0535 0.07437636
000060 80 c6 dc 3d 69 e5 17 be 6f ad 22 bf af f6 eb 3d
       0.10780048 -0.14833607 -0.6354589 0.115216605
000070 e5 16 a1 3d 4e 84 de be e0 a6 80 3e d2 7c ef be
       0.07865695 -0.43460315 0.25127316 -0.46774918
000080 fc 8a 03 3d 8c 81 59 3e 68 dd 7e 3e 92 33 1e be
       0.032114968 0.21240824 0.24889147 -0.1544936
000090 65 b1 b6 3b 35 5f 24 bd 8b db ae be e7 fb 30 be
       0.0055753463 -0.04012986 -0.34151873 -0.17283593
0000a0 0f 32 e6 be 75 b4 5e be 1d ab a2 be c5 4f 8e bd
       -0.44960067 -0.21748526 -0.31771174 -0.069488086
0000b0 f6 ce 84 3c 3a e1 d7 3c 6e 1b 82 3d 3a 60 bb 3e
       0.016211968 0.026352514 0.06352888 0.36596853
0000c0 e7 b8 21 bd 8f ca 98 3e 5a 7f 7b b9 1c c8 63 be
       -0.039482977 0.2984204 -0.00023984667 -0.22244304
0000d0 e9 bb 38 be ce d4 0a 3d 33 2f 59 be 77 f4 f0 3d
       -0.18040432 0.033894353 -0.21209411 0.11765378
0000e0 d9 19 97 be 85 b7 53 3e 97 42 37 3e e7 ed 10 3c
       -0.29511908 0.20675476 0.17896496 0.008845783
0000f0 95 62 65 be 15 a0 ad bd fd 9f 09 be ac ac b4 be
       -0.22400887 -0.08477799 -0.13439937 -0.35287988
000100 66 a6 4d be 8c a9 56 bf 34 4b 7f 3e c7 fe 70 bf
       -0.20083007 -0.8385246 0.24931031 -0.9413876
000110 94 08 35 bf 5d 51 e1 3d b9 cf c3 be d1 fc 2b bf
       -0.70716214 0.11001847 -0.38244417 -0.6718264
000120 6c fb f3 3e f0 86 69 3e 2a 1a 38 3d a2 3c 4e bd
       0.47652757 0.22805381 0.044946827 -0.050350793
000130 f3 88 23 bd 0c dd 12 3e 8b 73 63 bd c2 96 c1 bd
       -0.039925527 0.14342135 -0.055530112 -0.09452583
000140 64 47 25 3d 08 b2 8b be 1f f8 d9 be d6 65 7e 3e
       0.040351287 -0.27284265 -0.42572114 0.24843535
000150 98 6c f8 bd e0 96 f9 bd c4 56 4d be b3 ca bb 3e
       -0.121300876 -0.1218698 -0.2005263 0.36678085
000160 3f 0e 98 3b 81 2a 2b 3e a6 49 95 3e 80 34 58 bd
       0.00464037 0.16715433 0.29157752 -0.052784443
000170 32 5b cc 3c 1d 60 b2 bd 6b 4d 57 be 09 86 c7 be
       0.024945829 -0.087097384 -0.21025626 -0.38969448
000180 a4 16 a1 3d 28 39 d9 be 9b ab 60 bf 08 d7 36 3e
       0.078656465 -0.4242642 -0.8776185 0.17855465
000190 c3 7a 47 be b0 54 20 bf 7f dc a3 be 84 4f 72 be
       -0.19480424 -0.6262922 -0.32004163 -0.23663145
0001a0 56 70 38 be 64 ed 21 be 80 e2 41 3e 01 5c be 3d
       -0.18011603 -0.15813214 0.18934059 0.09294892
0001b0 41 77 0a 3f 71 cc 9e 3e a3 4a cf bb d4 29 8a be
       0.5408822 0.3101535 -0.006326036 -0.26985037
0001c0 c8 48 85 be 03 f6 91 bd 57 47 09 be 81 9e 14 bf
       -0.2603209 -0.07127001 -0.1340612 -0.5805436
0001d0 bc 74 88 be 8d df ee 3e bb 75 be 3e e8 7d 5d bb
       -0.2665156 0.4665493 0.37199196 -0.003379697
0001e0 e0 c8 48 3e bd d8 5d 3c a4 2a c8 be 7b a8 e1 bd
       0.19607878 0.013540444 -0.39095032 -0.11018463
0001f0 66 a9 1c bf 05 45 1c 3d 88 21 e3 be ca 54 9e 3e
       -0.6119598 0.03815176 -0.4436152 0.30924064
000200 0f 79 60 bd 56 0b 95 bd 8d 9d 1e 3d 99 60 46 bd
       -0.05480295 -0.07277553 0.03872447 -0.048431966
000210 08 a6 b4 3e 00 1b 14 bd 6a 48 91 be 59 e8 72 3d
       0.35282922 -0.03615856 -0.2837556 0.059303615
000220 40 85 be bc 9b 3d 16 be fa 92 b4 bd 48 cc 02 3c
       -0.023256898 -0.14671938 -0.08817096 0.007983275
000230 c1 e2 ab 3d 79 2c f8 bd 85 9b 27 bd 23 16 cb be
       0.08392859 -0.121178575 -0.0409198 -0.39665326
000240 8e ea ac be 0c 7e 60 be 43 87 c2 3d d9 f9 c7 be
       -0.337727 -0.21923083 0.094984554 -0.39057806
000250 13 33 fb be c1 c0 a7 3e 03 ac a0 3d 61 5d ac be
       -0.49062404 0.32764247 0.07845309 -0.33664992
000260 22 91 de 3e a2 b4 5a 3e d2 90 0b be d0 a3 c4 bd
       0.43470103 0.21357968 -0.13629463 -0.09601557
000270 ae df 9f be a8 8d 2c bb c8 9a 03 be 84 23 5f be
       -0.31225342 -0.002632955 -0.12852013 -0.21790892

classifier.1.bias f4 [10]
000000 0f 84 9b 3d 16 30 08 40 0a f8 c4 bd 7c 4f 94 bf
       0.075935476 2.127935 -0.09617622 -1.1586757
000010 2e e6 02 3f 7a 84 73 be 7f e4 b1 3e 61 5c 33 3e
       0.51132476 -0.23781005 0.3474464 0.17515709
000020 94 c5 6a bf c9 3a 00 bf
       -0.9170773 -0.500897
