lenet.pt (torch, 250917 bytes, 10 tensors)

features.0.weight f4 [6, 1, 5, 5]
00000000: 9600 ac3e 4158 a63e dfe3 c83e dc27 ea3d
00000010: de54 b83d 7f39 be3e ca4a fb3e 2de7 e93e
00000020: 2128 a23e 5aee ca3e f2e2 1b3e 1f8c acbd
00000030: 20bf 45be e780 53be 478c 90bd 29e4 e1be
00000040: 9dd1 b9be 33b7 4abe 1d6a adbd 0583 c8bd
00000050: 9f07 8bbc 47a1 b5be f998 01be ed96 a8be
00000060: d663 eabd 27cf b43d b22a c93c 21e2 183e
00000070: ed39 bebd 3c11 383e cb99 c03c 8263 1c3e
00000080: f937 0dbe e654 093d e06c df3b 9331 b83d
00000090: 3c98 e53d faef 36bd 2141 43be 8214 c9bd
000000a0: f72a 3abe 1a66 80be e9c2 f7bb d608 3cbd
000000b0: 5971 54bc 1ddd d3bd 927b 61be 8e32 05be
000000c0: 412c 1abe 7b4d 84bd 229d 0fbe b0c5 72be
000000d0: abf4 b5be 9556 acbe 9d26 79be 5d60 703d
000000e0: 5b2b 683d f0c9 a9be db3f a4be 127a 7bbe
000000f0: d740 433e f6b6 50be 90eb acbe b0d7 ce3d
00000100: a96f bb3d 4ff2 8bbd 0069 853e cc55 19bd
00000110: 4ed0 933e 7865 bb3e 1b23 47bd e15c 983e
00000120: f5ad dd3e 87f6 f83e 67c3 a03e c177 c6bd
00000130: b0ce 18bc 84f5 343d d082 b33e d763 583e
00000140: 5d40 95be 4420 98be 0e2e 513e 84f1 f93e
00000150: 7833 353e a098 abbe c007 4a3e afb5 143f
00000160: 8af7 1c3f 0138 9bbe 0afb 6bbd 54d8 9d3e
00000170: 0bbb 843e b785 843e e13f 06bf 4416 f2bd
00000180: 3e4d a53d d33c a23e eef3 c53d 7b24 dcbd
00000190: d045 e63b 1a6f 0abd f458 3d3d ce34 263e
000001a0: c013 17bd 51e0 64be 1331 1cbc 7178 0f3e
000001b0: 62bc 643e 13c2 8fbe 9f77 a2be 7c88 213e
000001c0: bfe9 0e3f fb51 943e cb7a fbbe b794 ecbe
000001d0: 2e12 9d3d 57b5 143f a98a 2b3e fcfb 0dbf
000001e0: 6e26 92be db8d 793e 8104 b83e c591 21bd
000001f0: 8cf8 5dbc 042a 033e 1320 393d 5b9a f63c
00000200: 98eb 9e3d 4e14 2ebe 0bcb 12bd e733 583e
00000210: 746d ab3d 25ba 91be 783a 05be ad22 403c
00000220: 4829 0fbe e420 93bd 87fb 41be d50d 883d
00000230: 789d 803c a5bd 743d b988 21be fffe 71be
00000240: 0052 1bbc 4892 3e3e 2871 a6bd 0031 81be
00000250: 8cce 1fbe d3b0 0fbc
0.33594197 0.32489207 0.39236352 0.11433384 0.09000562 0.3715324 0.49080497 0.45684186
0.3167124 0.39634973 0.15223292 -0.084251635 -0.1931119 -0.20654641 -0.07058006 -0.44119385
-0.36292735 -0.19796447 -0.08467505 -0.09790615 -0.016971407 -0.35474607 -0.1265601 -0.32927647
-0.114448234 0.08828574 0.024556492 0.14930011 -0.09288392 0.17975324 0.023510834 0.15272334
-0.13790883 0.03352823 0.006818399 0.089938305 0.11210677 -0.044662453 -0.19067813 -0.09818365
-0.18180452 -0.25077897 -0.007561077 -0.045906864 -0.012966477 -0.103449084 -0.22019795 -0.13007566
-0.15055944 -0.06460091 -0.14024785 -0.23708224 -0.3553823 -0.33659807 -0.24331136 0.05868565
0.056681972 -0.3316188 -0.32079968 -0.24558285 0.19067703 -0.20382294 -0.3377347 0.10099733
0.09152157 -0.06833326 0.2605667 -0.037435338 0.2886986 0.36600852 -0.048617464 0.2975836
0.4329678 0.48625585 0.3139908 -0.0969081 -0.009326622 0.044179454 0.3506074 0.21131836
-0.29150668 -0.29712117 0.20427725 0.48817074 0.17695415 -0.3351488 0.19729519 0.5808973
0.61315215 -0.30316165 -0.057612456 0.30829108 0.25923952 0.25883266 -0.5244122 -0.11820653
0.080713734 0.3168703 0.096656665 -0.107491456 0.0070273653 -0.03379736 0.04622741 0.16231081
-0.03688407 -0.22351195 -0.009533185 0.14010789 0.22337487 -0.28077754 -0.3173189 0.15774721
0.5582542 0.28968796 -0.4911712 -0.4620721 0.07669483 0.580892 0.16752113 -0.5546262
-0.28544945 0.2437052 0.35940936 -0.039445657 -0.013548028 0.12808996 0.045196604 0.0301029
0.0775978 -0.16999933 -0.035838168 0.21113549 0.08370486 -0.2846233 -0.13010585 0.011727017
-0.13980591 -0.07184008 -0.18943606 0.06643263 0.015700087 0.05975117 -0.15774812 -0.2363243
-0.00948 0.1861049 -0.081270516 -0.25232697 -0.15606135 -0.0087701855

features.0.bias f4 [6]
00000000: 1eda fa3e a601 adbe ade4 433e 1b75 073d
00000010: 670d 9b3d 1575 b9be
0.48994535 -0.3379032 0.19130202 0.033070665 0.07570916 -0.3622214

features.3.weight f4 [16, 6, 5, 5]
00000000: a567 2dbc cd7e e5bb 44c3 26be c46d f13c
00000010: b1fd 783c 0a0e f3bd 14e7 62be e29b 17be
00000020: b263 e8bd 3f96 2fbe 2ab3 283e 09ec 813e
00000030: df10 c83e db08 c13e 6762 983e 4b6d 8cbc
00000040: b281 653e cfb6 013e 2e05 353e ccfd 773e
00000050: a859 82bd f424 93be c6b1 90be 1be7 16be
00000060: dcfa 673c ba6d dbbc b651 afbd a4cd 0b3d
00000070: 2967 a5bd 26b8 55bc f874 01bc 1043 2abe
00000080: 859a 6dbe 5487 47be c813 b0bc 240f 1d3d
00000090: 5727 2f3c 7725 cb3d e989 7b3d fd11 3f3c
000000a0: e8eb 993d 7615 a03d e0ec a23d 4251 d93c
000000b0: 1cb6 0e3d 8d6e cd3c ed96 99bc ca88 bf3d
000000c0: 8c75 173d b6c9 303e 15d7 70bd a294 cfbd
000000d0: 2092 ac3d d331 b33d 3c3f b03c 28ba 233d
000000e0: 04df 203e 665b fb3d 00d3 823e 3edb 223e
000000f0: 7613 50be 1af8 9abe e98c afbe aa4f c6be
00000100: 4eaf ffbd d300 c7bd a493 16bc d7ec b9bd
00000110: d779 91bd 3590 a8bd 82a9 2a3e a13d b43d
00000120: 9e12 2e3d 5eca d0bc cc81 58bd fdf0 e13c
00000130: f6c0 ce3d 7549 d4bc b268 a6bd 5193 10be
00000140: cd7d 8abe 3692 70be ad22 5e3c 32f3 823c
00000150: b757 08be dc03 69be 731f bcbd 9144 a5bd
00000160: c415 71bd fae8 2fbc fa62 cebd 74a1 20bd
00000170: 2180 86bd e002 173e a78e 1b3e 678b 783d
00000180: 43c7 1a3e b7c0 fc3d 78a5 413e c1c8 413e
00000190: 8b53 523e d4dc 523e 3cc0 5f3e 0121 ecbc
000001a0: 6117 eb3c bd87 f3bd 1135 febd 576d 2dbe
000001b0: aefb acbd 7eb6 26be 5d58 3dbe 1a94 9dbe
000001c0: 6f3f 9bbe 9317 0bbe a14a 1bbe 6e03 39bc
000001d0: 67ef 2abe 45f4 37be 9125 28be 7fb0 1cbd
000001e0: 4d76 253e 2b20 243e 7402 993d 679f 8e3d
000001f0: 8a59 663d b155 eebc 75a2 52bd ffee e5bd
00000200: 29af 9a3c d9eb 3f3c 68df 15be ebd1 bbbd
00000210: 2893 8cbd 1bca 4dbe 46b1 2fbd 3460 fe3c
00000220: d08a b7bd 4dbc 8c3b 3c61 e3bd 3a1c 30bd
00000230: 2ff6 b53c ed5b d53c b6fb b73d 7651 d63c
00000240: 52ad d0bc 1ced 2c3c bf1a c33d 66ba 323e
00000250: ae96 213e 7fa5 243e 9acd ba3d c3c2 ad3d
00000260: b2de 183e 80bd 06be 7586 fbbd f594 ecbb
00000270: 3c35 ec3d 0b4d c63d 7d4d c2bd a175 01be
00000280: ee4b 0c3e 489e df3c ec92 99be 7297 85be
00000290: d05e 023d ce5a 443e 7ace 5dbd a07c c9be
000002a0: d5a6 40be 8974 8a3d b571 b33d b4be 26be
000002b0: c4af 4dbe 179a 21bd 28b7 99bd efca 2d3d
000002c0: d090 ac3d e846 7b3c f66c 3ebc 4e88 42be
000002d0: 6bef 7f3d 688b 143d 883a e53d 60c8 1dbe
000002e0: cb44 3fbe e2bb 11bc 1c10 3e3e 9b82 123e
000002f0: 373f 53be e41b 61be 7539 ff3d 844d 453d
00000300: a644 e4bc 6275 c0bd edad 25bc f4c6 e63d
00000310: 2a3c 993d 7b12 b23c 9c68 8abd cb88 d5bd
00000320: 5ce9 b83c 71f4 b53d ddc9 8e3b 330f 68bc
00000330: 7ee2 5f3d f7e3 7c3d 54c6 76be e1f1 76be
00000340: 2f35 1cbe 57a1 a53d 7ca0 833c 81a5 24be
00000350: 3f6c 673c 3d9d 17bd 6199 1abe d3ce 6fbd
00000360: 9dbb 0c3e 878e ea3d 9fb5 0fbe 9e5d 78be
00000370: 8b94 903d fa46 213e 0647 6fbe a2bb 85be
00000380: e168 8ebc 092a 8b3c a5d5 a2bc 1674 3fbe
00000390: 1ded 70bb cc0a 523d c076 b73d 35ea 58bd
000003a0: 12b1 b4bd d07a 813e 0443 533d fa33 c63d
000003b0: 622b 15be 1979 513d 976b 573e 6aa0 ed3d
000003c0: 7c98 e33d 63f3 35be b2d0 3a3e efe3 4e3e
000003d0: 3a2e 27bd 82bb a9bd 5b08 f33d 1d95 2f3e
000003e0: e49e 8bbd c0ca abbe 5799 febc e50c 20be
000003f0: a1a7 0abe 084c fd3d bf0a f63d f00e 64bd
-0.010583793 -0.007003641 -0.16285425 0.029471286 0.0151972035 -0.11867912 -0.22158462 -0.14805558
-0.1134714 -0.17147158 0.16474596 0.25375393 0.39075372 0.3770207 0.29762575 -0.017141959
0.22412756 0.12667392 0.17677757 0.2421791 -0.06364757 -0.2873913 -0.2826063 -0.14736597
0.014158931 -0.02678572 -0.08560507 0.03413166 -0.08076317 -0.013044393 -0.007901423 -0.16627145
-0.23203476 -0.19485217 -0.021493807 0.038344517 0.010690532 0.09919255 0.06141082 0.011662004
0.07515699 0.07816593 0.079553366 0.026528005 0.03484164 0.025077129 -0.018748725 0.09352262
0.036977336 0.17264447 -0.05879887 -0.10135771 0.08426309 0.087497376 0.021514527 0.039972454
0.15710074 0.12273292 0.25551605 0.15903947 -0.20319924 -0.3026741 -0.34287193 -0.38732654
-0.124846086 -0.09716954 -0.009190474 -0.09078377 -0.07103317 -0.0823063 0.16666225 0.08800817
0.042498223 -0.025487121 -0.05285816 0.027580732 0.10095398 -0.025913933 -0.08125438 -0.14118697
-0.27049103 -0.23493275 0.013558072 0.015985105 -0.1331471 -0.22755378 -0.09185686 -0.08069719
-0.058858648 -0.010736698 -0.10077472 -0.039216474 -0.065674074 0.1474719 0.15191136 0.06067982
0.15115075 0.12341445 0.18910778 0.18924238 0.20539682 0.20592052 0.21850675 -0.028824331
0.028697671 -0.118911244 -0.12412465 -0.16936241 -0.084464416 -0.16280553 -0.18490739 -0.30777055
-0.30321833 -0.13583212 -0.15165187 -0.011292322 -0.16692887 -0.17964275 -0.1642058 -0.038254257
0.1615841 0.16027896 0.07471171 0.06963997 0.056237735 -0.029093595 -0.051424462 -0.112272255
0.018882351 0.011713945 -0.14636004 -0.09170898 -0.06864005 -0.20096628 -0.04289367 0.031051733
-0.08962023 0.004294908 -0.1110253 -0.04299567 0.022212116 0.02604481 0.08983557 0.02616189
-0.02547327 0.010554578 0.09526586 0.17453918 0.15780136 0.16078757 0.09121247 0.084844135
0.14928702 -0.13158226 -0.12281505 -0.0072199055 0.11533591 0.096826635 -0.09487436 -0.12642528
0.1370084 0.027297154 -0.29994905 -0.26092106 0.0318287 0.19175264 -0.05415199 -0.39352894
-0.18813641 0.067605086 0.08761922 -0.16283685 -0.2008658 -0.039453592 -0.075056374 0.04242986
0.08426058 0.01533673 -0.011622658 -0.18997309 0.062484186 0.03626576 0.111928046 -0.15408468
-0.18678586 -0.008894892 0.18560833 0.14307635 -0.20629583 -0.21983296 0.12462131 0.048169628
-0.027864765 -0.09397389 -0.010112268 0.11268416 0.074821785 0.021737328 -0.06758234 -0.10426482
0.022572212 0.08884514 0.00435756 -0.01416378 0.05465936 0.06174084 -0.24099094 -0.24115707
-0.15254663 0.08087414 0.016067736 -0.1607876 0.014124929 -0.03701519 -0.15097572 -0.058546852
0.13743444 0.11452966 -0.14034127 -0.24254462 0.07059582 0.15749732 -0.23366937 -0.26119715
-0.017383995 0.016987817 -0.019877264 -0.18696627 -0.0036762424 0.051279828 0.08958197 -0.052957732
-0.08822836 0.2528901 0.051577583 0.096778825 -0.1456733 0.05114088 0.21037136 0.11602862
0.111130685 -0.17768626 0.18243673 0.20204137 -0.04081557 -0.082877174 0.11866828 0.17146726
-0.06817415 -0.33553123 -0.031078978 -0.15629919 -0.13540508 0.123680174 0.120137684 -0.055678308

features.3.bias f4 [16]
00000000: ba72 c0bc 9eaf 06be 01d1 46bd 2f0f 50bd
00000010: f8e8 623b be65 df3d 13fa d73d 3baf 3cbb
00000020: 6795 8c3c ca62 a8bd 83b1 8bbc e909 86bc
00000030: 5dd7 6cbd f8d2 a43d e055 bebd dd2d 2abe
-0.023492206 -0.1315293 -0.048539165 -0.05079573 0.0034623723 0.10908078 0.10545745 -0.002879097
0.017161084 -0.082219675 -0.017052418 -0.016362147 -0.057822574 0.080480516 -0.09293723 -0.16619058

classifier.1.weight f4 [120, 400]
00000000: a904 a4be 9607 ddbe e7a4 9fbe 6f82 b4bc
00000010: 95d2 e93d 52bd eabc 54a1 653d 33a8 ffbb
00000020: c597 09bd ad19 b8bc 0b2b 63bd bf6b 49bd
00000030: ab41 ebbb ab14 a0be 8fd7 afbe b51d afbd
00000040: 0410 92be b85e 85bd 1178 93bd 17ae ddbd
00000050: 4280 c43d 0730 7dbc 502e ba3d 760e 003e
00000060: 57f7 4b3d b9fe 01be 4c03 003e f7b6 c1bc
00000070: 35ff 7d3e ff93 7e3d 87e2 c3bc 5b83 bd3d
00000080: 24c8 cc3b 4351 f2bc 6317 ea3c ef29 e6bd
00000090: ebd0 9b3c b8fc 4cbc cf2a bfbc 3dd1 633d
000000a0: 253d 3fbe 13ab f33c fff4 a33c e0e4 b9bd
000000b0: e3ef 68bc cdbb 9bbd f881 0ebe a51c c83c
000000c0: ae5d 8a3d 67d5 83bd d10a cb3d 6b56 ba3c
000000d0: 34d3 723d 0dab 773e 6851 ea3d 0688 90bc
000000e0: a329 ffbc b607 ac3d fee4 c43d adb5 59bc
000000f0: 4eca d23d 720e 1b3e e2cd 373e 024a e9bd
00000100: 385a 773c 3c32 fc3d 60ab 1cbd c50b db3d
00000110: 9b09 023e 68df acbd b4b1 98bc efb5 b83c
00000120: 4b90 31bd a596 d0bd 9862 a5bc 7850 393d
00000130: 5a1a 813e 13ea 0b3e fac2 ed3d 25d3 c1bc
00000140: 0db1 3f3d bfe4 60be d309 173e 4d6a 9d3d
00000150: 2b5b 073b 3fe4 183d ecba 08be 3124 a1bc
00000160: f797 713d 1b8e 42bd 4a88 63bb c894 a6bd
00000170: 8b02 83bd 2a7c 8cbb ad0d 96bd fe87 b7bc
00000180: 2cb9 273d dc05 433b 1aa1 cabd e66e 733a
00000190: 927c a4be 81f3 41be 447c 7b3d b645 da3d
000001a0: 9cb5 933d ff3b 10bd eba2 a6bd 6998 4bbd
000001b0: d858 3cbd dbe1 ba3d 5670 9dbd d3d7 bcbc
000001c0: 5f13 70bd dbf7 79be 60b5 5abd f4e2 ddbd
000001d0: 3463 42bc 3d10 393d 12c5 52be 4fc0 febc
000001e0: bfa5 0bbd dacb 7ebc ae67 bc3e 7f88 50bd
000001f0: 1524 50bd fc71 8ebe 6ea7 ddbe e7e6 1f3e
00000200: 006d 6f3d 2ea1 9e3d e7ed 05be a4d0 aabe
00000210: 6628 073e f8e6 e8bc 1482 143d 8496 74bd
00000220: ecc8 87bd 3687 3c3e 15a9 a3bd 62f2 afbe
00000230: 085e 333c 3fb9 31be b7dd d23d c2af 85be
00000240: 0620 e9bd a17c 183e 9db2 eb3d 1dee 2bbb
00000250: e44d 8fbd c566 cb3d ab17 4ebe ce9f 2abe
00000260: b8cc 013d 375a 8cbd b66d 67bd 221c 01be
00000270: 6f24 953d 8c87 1e3d e07a 4ebe edb3 b9bd
00000280: b2b8 e7bd 8499 21be 370a 74bd 84db d2bd
00000290: b12d e9ba c749 e13d 14da 273d 5c13 473e
000002a0: 6478 2d3e bf50 b0bd 3f9e 223e 3c3d c1bd
000002b0: c8f2 8fbb 7e60 953e a1b4 51bd 984b 59bd
000002c0: d3c9 ab3d b803 bd3d b369 b63d 235f 22be
000002d0: da7a 2e3d 4374 573d 9825 c13d 538b b33d
000002e0: 6f77 d4bd 2b8a 063c 75b2 1abd ad42 703c
000002f0: 6760 c3bd f111 49be 073d 1fbe b39f 39ba
00000300: 8c7a 943d ba0e 05be b4a3 ca3d 77a4 34bd
00000310: b8c4 cdbd 1b3b ddbc 80fa 3f3d e3e2 52bd
00000320: 4e3f a5bd d4dd b8bc b0ca aebd 79fe 993c
00000330: 5dc2 2a3e 6f09 0dbe ed3e 24be fe96 26be
00000340: 6955 4abe 8aef 003d df32 1dbe 8468 41bd
00000350: a0b5 babd 3d44 b3be c9c0 9abd 6431 a33d
00000360: 8c58 9b3d 82d5 b53c 8504 c43a e9f2 e0bd
00000370: f744 dd3d 0fb4 5a3b bd24 093d a785 0bbe
00000380: 5397 cabd 38ae f23d 42a7 113e ef71 333e
00000390: 9d18 173e 1247 a63d 964f b43c d653 bd3d
000003a0: 1ecd 52be 0ada 02be 06d5 303d a25f 8d3c
000003b0: e5cc 0d3e 1c59 4bbd 2af2 893d 2e2a 1fbc
000003c0: e044 d4bd 2c95 7f3e 7a23 433e 2316 d9bd
000003d0: f1c1 2dbd cf77 4dbe f174 d63c 0279 d1bd
000003e0: b29c b6be c22c 52bc 2c4d 4abe de14 9abb
000003f0: 3f8a 783d 6cb5 efbc 1f5e 25bd 266f 283d
-0.32034805 -0.4316985 -0.31180498 -0.022034852 0.114171185 -0.028654728 0.056062058 -0.0078020333
-0.033592004 -0.02247318 -0.05546097 -0.04917502 -0.007179459 -0.31265768 -0.34344146 -0.08550588
-0.28527844 -0.06512207 -0.07200635 -0.10824221 0.09594776 -0.015453345 0.09090865 0.12505516
0.04979643 -0.12694825 0.12501258 -0.023646815 0.24804385 0.06215286 -0.023911728 0.0925357
0.0062494446 -0.029579764 0.028575605 -0.11238467 0.019020518 -0.012511425 -0.023335842 0.055619467
-0.18675669 0.02974466 0.020014284 -0.090768576 -0.01421735 -0.076041795 -0.13916767 0.024427721
0.06756149 -0.06437188 0.099141724 0.022746285 0.05928345 0.24186344 0.11441308 -0.017642986
-0.031147784 0.08399908 0.09613989 -0.013287944 0.10292493 0.15142229 0.17949632 -0.11391069
0.015097193 0.12314269 -0.038249373 0.10695604 0.12698977 -0.08441049 -0.018639423 0.02254769
-0.0433505 -0.10184983 -0.020188615 0.045242757 0.25215417 0.13663511 0.116094545 -0.023660252
0.04679971 -0.2196226 0.14749841 0.07686291 0.0020653706 0.037327047 -0.13352555 -0.019670578
0.058982816 -0.047498804 -0.0034718686 -0.081338465 -0.063969694 -0.0042872624 -0.07326827 -0.022403713
0.040948078 0.002975813 -0.09894009 0.00092862395 -0.3212629 -0.18940546 0.061397806 0.106578276
0.072123736 -0.035213467 -0.08136543 -0.049705897 -0.045983166 0.0912511 -0.07687442 -0.023052132
-0.058612224 -0.24410956 -0.05339563 -0.108343035 -0.011864472 0.0451815 -0.20582989 -0.03109756
-0.034093615 -0.015551532 0.3679785 -0.050911423 -0.05081566 -0.27821338 -0.432918 0.15615426
0.05845356 0.07745586 -0.13079034 -0.33362305 0.13199005 -0.028430447 0.036256865 -0.059713855
-0.0663012 0.18410954 -0.07991234 -0.3436461 0.010947712 -0.17355822 0.10296195 -0.26110655
-0.11383061 0.14891292 0.11508677 -0.0026234456 -0.06997278 0.09931711 -0.20126216 -0.16662523
0.031689376 -0.068531446 -0.056501113 -0.12608388 0.0728234 0.038703486 -0.2016406 -0.09067521
-0.11314525 -0.15781218 -0.059580054 -0.102957755 -0.0017790106 0.110004 0.04097946 0.19440979
0.16940457 -0.08609151 0.15880679 -0.09435508 -0.0043929555 0.2917518 -0.05119765 -0.053050607
0.08388104 0.09229225 0.08906879 -0.15856604 0.04259763 0.05260111 0.094309986 0.08766808
-0.10374343 0.008211653 -0.037767846 0.014664334 -0.09539872 -0.1963575 -0.15550624 -0.0007080987
0.072499365 -0.12993899 0.09894505 -0.04410216 -0.10047287 -0.027005723 0.046869755 -0.051485907
-0.08068715 -0.022566713 -0.08534753 0.0187981 0.16675706 -0.1377313 -0.1603963 -0.16268536
-0.19759144 0.031478442 -0.15351437 -0.047218814 -0.091166735 -0.35013 -0.07556302 0.07968405
0.07585248 0.022196535 0.001495496 -0.109838314 0.108041696 0.0033371483 0.033482302 -0.13625203
-0.09892144 0.11849636 0.1422396 0.17523931 0.14755483 0.08119024 0.022010606 0.09244506
-0.20586058 -0.12778488 0.043171905 0.017257515 0.13847692 -0.04964553 0.06735642 -0.009714646
-0.10364699 0.24959248 0.19056502 -0.10599925 -0.042421285 -0.20065235 0.026178809 -0.102281585
-0.35666424 -0.012828054 -0.19756001 -0.0047021946 0.060678717 -0.029261313 -0.040372964 0.041121624

classifier.1.bias f4 [120]
00000000: 5618 88bd 5566 cd3c 38bd 9b3a a3a0 023d
00000010: 4ccb 62bd 47e1 cbb9 e092 023d 165e 64bc
00000020: d5ec a1bc 7a78 3dbc 1f8a 51bd c525 e1bc
00000030: 7849 53bd 6964 08bd 8601 88bc 8b23 0d3b
00000040: 7bb7 813b 0719 0e3e 863b 933c 16de 3a3b
00000050: f31c 02bd 4531 053d 6565 8fbb bddb da3d
00000060: 922c e0bc ecc3 86bd 3d64 3ebd a71a 00bd
00000070: 97ea 2d3d 3d3d 55bb ab78 c1bc cb55 b33d
00000080: 7a2e b4bd 168f bf3d 007f 8e3d 018d 2dbd
00000090: 0f0f cebd 409e e33d a70f 9f3d 8924 06bd
000000a0: daef c33c 0591 113e 9ccc c73c a018 193d
000000b0: d427 18bd d0ca ddbc c9eb 94bc 9d7c bcbd
000000c0: 052a 9e3d 2522 44bd 0ba4 ba3c 0e69 a1bc
000000d0: d77e ba3d b036 92bc 22eb 243d 7c2f ca3d
000000e0: 973f 683d 72ac 82bd 53c3 b6bc 0b01 1d3d
000000f0: 28cf 80bd fb94 8d3b 066b 7bbd a79d 07be
00000100: db1a 593b 4ab5 383e b2c1 df3d 239b efbc
00000110: a9d4 ea3d 66e2 1cbe c5a4 a2bd 545c 6ebd
00000120: ff10 bf3d f27d 47bd ea61 bcbc 1ac7 f53b
00000130: 2665 8cbd de47 033e af3b 093d 7282 f13b
00000140: 1fcd d33b 394a 2c3c 3125 f43d bc38 a23d
00000150: 39d4 98bc f381 093d 4c1e a03d 933b 953a
00000160: 8c37 6c3c e0dd 903c 5f0d 0d3c cc3c c7bd
00000170: 06f9 b13d c174 083e 3024 c9bc ca14 49bd
00000180: ed7f a5bc 8c7c ad3d 8cef 7fbd 9e7b b7bc
00000190: e8d7 e43c c955 9a3d 0999 7bbc 8961 703d
000001a0: 1f96 84bd 8284 88bd 38a9 f2bc e22c d0bc
000001b0: d04b 3bbc 85c3 c0bd 38cc a3bc 5fb1 113d
000001c0: 1327 2cbc 8e94 4b3d 5972 283b 550d ba3d
000001d0: 6847 50bd 9930 bfbc fd8e 9a3d 3dd9 9bbd
-0.06645267 0.02507321 0.0011881953 0.031891476 -0.05536966 -0.00038887022 0.031878352 -0.013938447
-0.01976625 -0.011564368 -0.051157113 -0.02748383 -0.051583737 -0.033298884 -0.016602289 0.0021536078
0.00395864 0.13876735 0.017972719 0.0028513721 -0.03176589 0.03251769 -0.004376101 0.10686443
-0.027365003 -0.06580338 -0.046482313 -0.031275418 0.04246005 -0.0032537722 -0.02361711 0.08756598
-0.08797927 0.09353463 0.06957817 -0.0423708 -0.10061466 0.11114168 0.07766657 -0.032749686
0.023918081 0.14215477 0.024389558 0.037377 -0.037147358 -0.027074248 -0.018178837 -0.092034556
0.07722858 -0.047884125 0.0227833 -0.019703414 0.09106224 -0.017848343 0.040263303 0.09872338
0.05670127 -0.063805476 -0.022309935 0.038331073 -0.06289512 0.0043207384 -0.061381362 -0.13243733
0.003312758 0.18037906 0.10925616 -0.02924878 0.11466343 -0.15320739 -0.079415835 -0.05819352
0.093294136 -0.048704095 -0.022995908 0.0075005414 -0.0685523 0.12820384 0.033504184 0.0073702866
0.0064636613 0.010515743 0.11921156 0.079209775 -0.018655883 0.033571195 0.07818279 0.0011385552
0.01441754 0.017683923 0.008609145 -0.09728393 0.086900756 0.13325788 -0.024553388 -0.04909209
-0.020202601 0.08471021 -0.06248431 -0.022397812 0.027934983 0.075358935 -0.015356311 0.058686767
-0.06473946 -0.06665899 -0.029621705 -0.025412027 -0.011431649 -0.094122924 -0.01999484 0.035569545
-0.010507363 0.04970222 0.0025702922 0.09084574 -0.05084935 -0.023338603 0.07546804 -0.07609794

classifier.3.weight f4 [84, 120]
00000000: c8e4 e6bd 0531 c6bd b6ae 4e3c 0f1f 093e
00000010: 18e4 6cbd 9ca7 e4bb 5c13 6cbd 549b b4bd
00000020: 9483 1ebd e3d5 a93d 445b 80bd eb18 9e3c
00000030: 636f 5ebd e144 43bd 172e c93c 7558 c8bb
00000040: 1287 c13d de0d 7c3d 0f43 0c3d b8b7 3e3d
00000050: 900e a8bb 519d d73d baae edbc 768d 093e
00000060: 0c91 073b 77ba b53d 2e04 d0bd e3bd 57bc
00000070: 2488 163e 3e5a 7a3d 812e f4bc 5c58 053d
00000080: 484c 8fbe 594d 9e3b 1438 f7bd bf2c d2bb
00000090: b80d 11be 9f63 c53d b1db 613d 5eb8 c0bd
000000a0: 0b3a 98bc 261c 963d 7e4d 333d 36c7 343d
000000b0: c8b2 7bbd a577 85bd 5114 4ebe 6d8d 0fbd
000000c0: 8ebf 793d 479b 47bc 5808 4b3e 1e7c 4b3d
000000d0: dfb1 473c ca5f 8b3d 4e7e 203e e7b9 bf3d
000000e0: 4d9b 383d 67c1 82bc 7312 09bd f2b8 bcbd
000000f0: 4f1f a23c af7a 40be df08 32be cbe5 f8bc
00000100: f9f5 c9bd 7ca5 143e f0d1 6abd 4636 3ebd
00000110: f838 1e3e cbff 17be 9716 cfbc b1db b9bd
00000120: d12a fa3c ff9b 863d bbb0 273e 0c29 b2bd
00000130: cf72 af3d 1738 383d 2c11 c1bd 4f57 69be
00000140: 15d3 fcbb 4b23 7f3e 7ec0 313e f908 e13d
00000150: 31d7 4cbd 5eba 543e f734 353c 681b 93bd
00000160: ddde 83bd 76a9 d53d 6baf a23c 52db 89bd
00000170: 751c 223d 1f92 623b 1150 81be dd76 6dbc
00000180: cf0d 2a3d 6786 693d 54f0 073d d8df 25bd
00000190: 508f c1bd d233 133d 933e 68bc 91c9 e43d
000001a0: f87f 483c b182 e1bd 1f08 95bc 08e3 82bd
000001b0: 0b11 13be 78ce 823d fcfa a53d 2ef7 85bd
000001c0: c55b 0abd f3a8 2c3c 89fe f23c f64c 093e
000001d0: 1b88 e13d 7de0 163d 3b94 7f3d 0a00 a8bd
000001e0: 2ea0 edbd b026 b7bc f8a9 3a3e e376 753e
000001f0: fe50 b2bd 1446 2b3e 8ef5 cfbc b957 71bc
00000200: 818c 283e 7284 9abc 99aa 693d f836 c5bd
00000210: ccd8 2a3e ce00 883e 5a6d 40be af34 543d
00000220: b389 173d 90ea 763d 5f1e 84bd 7739 153d
00000230: 6be0 75bd 99a5 26be 7bfd b2bd b929 9ebd
00000240: 1e06 d73c 80c4 823c 6cf8 cc3d 6687 593d
00000250: 88bd b23d d2fc 18be 041c bcbb 781f e43d
00000260: 02b9 22bd 7aa1 51bd 27ab 1d3e 4891 a93d
00000270: 3310 6dbd 984c 46bd 26e9 4bbe 3c76 cb3b
00000280: e6d9 193e 4d3e 5ebe 2f50 1d3d cb23 96be
00000290: fcf7 673d 4c4b 56bc 0f95 a33d 1a4d 073e
000002a0: d313 b23d d959 bb3d ca5d 03bd b746 943d
000002b0: 952d 9b3d bea6 86bd 9129 efbb a29a 94be
000002c0: 3602 c73d 2e8c 523d 5d48 82bd 4605 823d
000002d0: 3f63 833c 711d c43d aa73 6a3e 3049 6dbc
000002e0: 461d 83bc f619 183b 4276 9a3d 8e1d 9b3d
000002f0: fff3 25be e213 66be 800a 963d e954 653c
00000300: 9000 3c3c e469 e13d e594 28be 8d12 783c
00000310: 1ef8 1e3d f030 543d 8333 7d3e 3581 f53d
00000320: 9b2c 6e3d 0609 dcbd aac2 bc3d 9792 6c3c
00000330: d500 6ebc 6a46 04be 853a 413e a9ed 9b3e
00000340: 2e49 873e 80fc 173e 4b11 493d 0425 813d
00000350: 4b7c c63d 0726 abbd d672 8abd 5f5e ab3d
00000360: 9658 01bd e884 07be 59b6 1fbe c772 bb3d
00000370: 9678 a13d 92f7 7dbc 6c33 3aba dfb6 58be
00000380: 92ee 37bd 4edc 9b3d 367c 40bd de8c 603e
00000390: cedd 20bd 4ea6 4fbc 9757 8abd 96ed 7dbd
000003a0: f28b 8cbd a593 2abd 262f 313e 832d 9e3d
000003b0: b5e8 82bc def2 c83d 6f2e 01bd 6231 ea3c
000003c0: 993d 35be eff2 d73c 162f bf3c 311e 35be
000003d0: 23b8 0b3d 1f5c 013e 18f3 203d 71f8 933d
000003e0: a94c f13c fca9 2d3d 73b7 533e 4c3d 9cbc
000003f0: 8155 9a3c 9203 033e f7ee 9fbd 41db 82be
-0.11274105 -0.096773185 0.0126148965 0.13390754 -0.057834715 -0.0069779884 -0.05763565 -0.08818689
-0.0386997 0.08292749 -0.062674075 0.019298991 -0.054305445 -0.04767311 0.02455811 -0.0061140605
0.09449591 0.061536662 0.03424364 0.046561927 -0.005128689 0.105280526 -0.02901398 0.1343287
0.002068582 0.08873456 -0.10157047 -0.013167831 0.14700371 0.061121218 -0.029807331 0.03255497
-0.27987885 0.004830998 -0.12071243 -0.0064140256 -0.1416539 0.09638142 0.055141155 -0.09410165
-0.018582365 0.07329588 0.043775074 0.044135295 -0.061449796 -0.06516961 -0.20124938 -0.035046984
0.060973696 -0.012183017 0.19827402 0.049678914 0.012188404 0.0680538 0.15673181 0.0936163
0.04506998 -0.015961362 -0.03346486 -0.09214963 0.01979032 -0.187968 -0.17386197 -0.030383011
-0.09861369 0.14516252 -0.05732912 -0.046438478 0.1545142 -0.14843671 -0.025279326 -0.09075106
0.030537995 0.06572723 0.16376011 -0.08699235 0.0856682 0.044975366 -0.094271034 -0.22787212
-0.0077155926 0.24915807 0.17358586 0.109880395 -0.05000991 0.20774218 0.011059991 -0.07182962
-0.06438992 0.10432713 0.019859036 -0.06731285 0.03957792 0.0034571958 -0.25256398 -0.014493671
0.041517075 0.05701294 0.03318818 -0.040496677 -0.09451163 0.03593809 -0.014175075 0.11171258
0.012237541 -0.110112555 -0.018192349 -0.06390959 -0.1436197 0.06387037 0.08104512 -0.065412864
-0.033778924 0.0105383275 0.029662387 0.13408265 0.11012288 0.036835182 0.062397223 -0.082031325
-0.116028175 -0.022357315 0.182289 0.23971133 -0.08706854 0.16725951 -0.025385644 -0.014730387
0.16459848 -0.018861983 0.05704746 -0.09629625 0.16684264 0.26563114 -0.18791714 0.051808055
0.036996555 0.06028229 -0.06451105 0.036431756 -0.060028475 -0.16274108 -0.08739754 -0.07722802
0.026248034 0.01596284 0.1000832 0.05310764 0.087275565 -0.14940193 -0.0057406444 0.11138815
-0.03972722 -0.051179387 0.1539732 0.08279663 -0.057876777 -0.04841289 -0.19913158 0.006209163
0.15024528 -0.21703453 0.038406547 -0.29324183 0.05663298 -0.013079476 0.07987415 0.13213006
0.086951874 0.091479965 -0.032071866 0.0724005 0.075770535 -0.06574772 -0.0072986563 -0.29024225
0.097172186 0.051403217 -0.063614585 0.06348662 0.016038535 0.09575928 0.22895685 -0.014482781
-0.01600517 0.0023208833 0.07542087 0.075739965 -0.16206358 -0.22468522 0.073262215 0.013997295
0.0114747435 0.11006525 -0.16463049 0.015141142 0.03881084 0.051804483 0.24726681 0.11987535
0.058148008 -0.107439086 0.09216817 0.014439247 -0.014526566 -0.12917486 0.1886998 0.30454758
0.2642302 0.14842415 0.049088757 0.06305888 0.09691676 -0.083568625 -0.067601845 0.08367609
-0.031578623 -0.13234293 -0.15596904 0.091527514 0.07884328 -0.01550092 -0.00071029994 -0.2116351
-0.044905253 0.07610379 -0.046993457 0.21928737 -0.03927403 -0.0126739275 -0.06754988 -0.061994158
-0.0686263 -0.04164471 0.17303142 0.077235244 -0.015980104 0.09811948 -0.031538423 0.028588
-0.17699279 0.026360957 0.023337882 -0.17687298 0.034111153 0.12632798 0.039294332 0.07225121
0.0294555 0.042398438 0.20675449 -0.019072197 0.0188396 0.1279433 -0.07809251 -0.25557902

classifier.3.bias f4 [84]
00000000: f3e2 d33c 803d 103d 6b5e 07bb 6d21 ff3c
00000010: b322 1e3c 373a 6e3d 3857 0c3e 5af4 a03d
00000020: ec0d 8bbd 52a9 d4bd 2b38 a4bd 8e3f e03c
00000030: 15b9 3c3e 4ef5 173d 7fb0 2e3e b616 94bd
00000040: c090 c73d 4863 983b a1aa 163e 682f c6bd
00000050: e5a4 b7bc 5da7 5ebd 289e 0ebd c037 7d3d
00000060: 60e3 aebd 19e0 1b3d cc28 8dbd 4431 a53c
00000070: b514 ed3d 3483 16be 265b 163e 6b18 5fbd
00000080: 55cf 093e d8ec 143e 27b5 d53c 4642 c2bd
00000090: 4780 4e3d aa31 a13d 432a 163e 0b6a 6e3c
000000a0: 37a9 b8bd 1d86 d83d 8d1b 1fbd 2f42 6fbd
000000b0: 2f0f f13c d6f2 80bd f2fd 053c 34d6 d53d
000000c0: 75c7 6b3c a467 0a3e 9f4a febd 9ed5 45bc
000000d0: c0f3 d1bd 20c1 80bd f63c afbd 4a64 163d
000000e0: dcbb 343c f13e 213b 2a6e 07bd 301b 303e
000000f0: 3754 24bd 5cd3 78bc a28b 0abd 7770 693e
00000100: 2780 19bd ab1b 71bb b815 cc39 c272 b8bd
00000110: d2d0 573c 5906 ffbd 0321 88bd bc77 8abd
00000120: 5d9c 54bb ce95 06be cb0c bdbb bbc4 cb3c
00000130: 8f8a c53c 5f34 223e 840e 7ebd 9f06 b1bd
00000140: 907f 88b9 bb03 f63c b810 9abc fd2c 15be
0.025865054 0.0352149 -0.0020655643 0.031143868 0.009651828 0.058160987 0.13705146 0.07859106
-0.06789765 -0.10383858 -0.08018526 0.027374055 0.18429978 0.037099175 0.17059515 -0.07230894
0.09744406 0.004650507 0.14713527 -0.09677011 -0.022417495 -0.05435883 -0.0348188 0.061820745
-0.08539462 0.038055513 -0.06892547 0.020165093 0.11576215 -0.14698488 0.14683208 -0.054466646
0.13457997 0.14543474 0.026087357 -0.09485297 0.050415304 0.07870801 0.14664559 0.01455165
-0.0901665 0.10572455 -0.038844634 -0.058412727 0.029426185 -0.06296317 0.008178221 0.10441247
0.014390816 0.13516098 -0.124165766 -0.012074856 -0.1025157 -0.06286836 -0.08556549 0.036716737
0.011031117 0.0024604166 -0.033064045 0.17197871 -0.040119376 -0.015187111 -0.03382457 0.22796808
-0.03747573 -0.0036790173 0.00038926094 -0.09006263 0.013172345 -0.124523826 -0.066469215 -0.06761119
-0.0032441833 -0.13143083 -0.0057693473 0.024874082 0.024113921 0.1584029 -0.062025562 -0.08643841
-0.00026034983 0.030031076 -0.0188068 -0.14567943

classifier.5.weight f4 [10, 84]
00000000: de33 993c e3fd 273e da1b acbd 0b53 dfbc
00000010: 8287 1ebd d2d1 c13d ca0e 26be 1734 c3bc
00000020: 1317 7b3d c36d cfbb 151f 693d 284f 17be
00000030: 68bf 13be e9f2 89be 61d7 0d3e ba63 14bd
00000040: eeb4 2abe 22aa 4ebe 76af 52be 115b 8fbe
00000050: f441 d23b 81d0 a93a bbee a6be 61a5 77bd
00000060: 9ac1 cc3c 31d6 7abd f81d 2cbc 2b31 76be
00000070: b41d bb3d 95bd f33b 059b b93d 8182 2bbe
00000080: 7e7d 0b3e ccde 41be e1f6 1cbe 7694 793c
00000090: 7e94 fc3d 1a90 a1bc bed6 293d 13ad 42bd
000000a0: 6957 09be 3754 e3bd 143c 16bd d514 f6bd
000000b0: 274e 583c 79a4 253e 0d15 9a3d 4910 29bd
000000c0: ed6d 88be 00ac 2abe 96bf 8abd 5a25 94be
000000d0: 96a7 a03d f696 a5bd 8707 4cba ff19 353e
000000e0: afb6 c33d 5dd3 173e 8b52 e6bd adbf 92be
000000f0: 8f5c a63c 6186 99be 584a 113e e055 f23d
00000100: de2c 15be 8162 c1bd 9ca4 83be aae1 a0bd
00000110: 8d44 253d 8691 2d3e 1344 8d3e 7e50 83bd
00000120: 35b5 613d 919f 15bd f66f 75be 5ddb 563c
00000130: b876 ac3d dc05 ff3d 45aa 6cbd 88ca 9dbd
00000140: 039b db3d 7ccd 14be 4dec 193e 96be 083b
00000150: 0d4a 00be 11e4 a6be 3d3b b6be 505d b93c
00000160: 4241 bebd 7710 433c c12a 123e 7b0f 383d
00000170: 3ef7 1ebe 3fa8 a4bc c935 92bd 9efb 9e3d
00000180: 32c0 4ebe 8d28 863d 520b 55be 4047 87bc
00000190: e191 d43d 89d8 6cbe 278f 943d b771 393e
000001a0: 1a19 e23d 835e 38bb 4e3b f53d ead1 203e
000001b0: 86c7 4fbe faf9 73be 6483 7abd 778e b4bd
000001c0: 6497 913d bea9 e1bd 20bf e1bc b2f0 e73d
000001d0: 6e83 e3bd c78d e6bd 101c 3d3e 4c5f 56bc
000001e0: 558a 063d bab9 2abe 1873 f6be b8f5 193e
000001f0: 78bb cbbe d9c7 953d 9ba0 94be 2438 3abe
00000200: b0ce 113d 6347 2e3e 0bc6 263e 15ab 02be
00000210: f803 e13d 9b49 38be 7430 ddbd 6657 c73d
00000220: 98f3 833d be1b 8fbd dfe6 2ebd fd16 c4bb
00000230: bc71 87be 8a3b 203e 1401 19be 9439 123d
00000240: 5fba 6d3d 7850 cfbd 8944 4bbe 5de7 15be
00000250: 3fb2 16be 1a50 fdbd f03a 69be 96a2 1abe
00000260: f61b 3e3e e36f 503d fba6 82be 7ea1 2fbe
00000270: 503b b03d daf4 da3d 415d f63c 9348 803d
00000280: 0a66 babc acab 79bd dda7 fabd 2158 f4bd
00000290: 150d 92be 47d1 343e 7acb 383c ac34 bf3b
000002a0: 2dd2 853d b58a d7bc 26ae 91bd 7d2b 3fbd
000002b0: 9db8 363c dfd2 4f3e d2c3 003e db71 35be
000002c0: e102 3bbe 25e1 ed3c 0a98 69bd 60dc 4d3e
000002d0: e8fa d43c 6787 8bbd 8c96 0abe 7f11 bdbd
000002e0: a35e d63d 9ca9 c83d 676a febc a258 c1bb
000002f0: 0009 44bc 6b64 bc3d f6c1 ec3d b88d 2bbe
00000300: e021 df3d a95f 03bd 3810 1abe 3f67 b93c
00000310: ce98 893d e55a bcbd 874a 953c b48d db3d
00000320: e9e4 10bd 916e 0f3e a342 71be 3bd4 f1bd
00000330: 3f91 673e da68 d8bd f2c4 b13d 7da1 97bd
00000340: 5933 8fbe f775 32be 4a1f 4bbe d39a 193e
00000350: c99b 57be 21be 0f3e c398 32be fc75 9cbd
00000360: fd65 51be 112b b1bd 3198 483c 8e4b 633d
00000370: 45ba 863b 7176 10be dd95 a33d 306b 19be
00000380: b42f 6cbd 6534 213c 2dbc b1b7 5da5 39be
00000390: a1a5 68be 3b7c 80be 0e17 683e 4d85 81bd
000003a0: 295f 803d c38a de3c d0e6 eebc 4c2b dfbc
000003b0: de3d aabe 470f 9ebe 9580 7bbe ee48 c9bc
000003c0: ac06 4abd d917 e33d 69cb 7cbe c5c9 edbd
000003d0: c7fb 123d db1f 473e 8cee 6cbd 245c 70bd
000003e0: 21cd af3d ee9c 293e c1d2 a0bc c0a9 ffbd
000003f0: 8c68 82bd 6ac3 c73d 9f5b 683d 05c4 fbbc
0.01870149 0.16405444 -0.0840375 -0.027261278 -0.03870345 0.09463848 -0.16216579 -0.02382855
0.061301302 -0.0063302233 0.056914408 -0.1477629 -0.14428484 -0.26943138 0.13851692 -0.03622792
-0.16670582 -0.20182088 -0.20574746 -0.27999166 0.0064165536 0.0012955816 -0.32604012 -0.060460452
0.02499466 -0.061239425 -0.010505192 -0.24042194 0.09136525 0.0074383714 0.09062771 -0.16749002
0.1362209 -0.18932647 -0.15328552 0.01523315 0.1233301 -0.019722033 0.04146456 -0.047528338
-0.1341225 -0.11100047 -0.03667839 -0.12015692 0.013202227 0.16176023 0.07523546 -0.041275296
-0.26646367 -0.16667175 -0.06774823 -0.28934747 0.078444645 -0.08085434 -0.0007783104 0.17685698
0.095563285 0.14826722 -0.112462126 -0.28661862 0.020307807 -0.29985335 0.14188516 0.118327856
-0.14567897 -0.09442616 -0.25711524 -0.07855542 0.04034858 0.16950044 0.27591 -0.06411837
0.055104453 -0.036529128 -0.23968491 0.013113824 0.08421081 0.124522895 -0.05777957 -0.077046454
0.107229255 -0.14531511 0.15031548 0.0020865551 -0.12528248 -0.32595876 -0.3559207 0.022627503
-0.09289791 0.011905781 0.14274122 0.04493664 -0.15524003 -0.020099757 -0.07139165 0.07762836
-0.20190504 0.06550703 -0.208051 -0.016513467 0.10379387 -0.23129477 0.07253867 0.18109785
0.11039944 -0.0028132505 0.11974202 0.15705076 -0.20290956 -0.23825827 -0.06116046 -0.088162355
0.071089536 -0.11018704 -0.027556956 0.11325206 -0.111090526 -0.11257511 0.18467736 -0.013084244
0.032846767 -0.16672412 -0.48134685 0.1503514 -0.39791465 0.073135085 -0.29028782 -0.18185478
0.035597503 0.1701942 0.16286485 -0.12760575 0.10987085 -0.17996828 -0.10800257 0.09733467
0.06442946 -0.06987713 -0.042700645 -0.0059841857 -0.2645396 0.15647712 -0.14941818 0.035699442
0.058039065 -0.1012277 -0.19850363 -0.1463904 -0.14716433 -0.12368794 -0.22776389 -0.15101084
0.18565354 0.050887953 -0.2551802 -0.17151448 0.08605063 0.10691233 0.030073764 0.062638424
-0.022753734 -0.060954735 -0.12239049 -0.11930872 -0.28525606 0.17657958 0.011278981 0.0058351364
0.065342285 -0.026311258 -0.07113294 -0.046672333 0.011152414 0.20295285 0.125747 -0.17719214
-0.18262817 0.029038021 -0.05702976 0.20103598 0.025998548 -0.06812935 -0.13533992 -0.09231853
0.10467269 0.097979754 -0.031056596 -0.0059004584 -0.011965036 0.09198841 0.115604326 -0.1675328
0.10895133 -0.03207365 -0.1504525 0.02263224 0.06718598 -0.09197024 0.018224014 0.10720387
-0.035374556 0.14007021 -0.23560576 -0.11808058 0.22614 -0.10566874 0.086801425 -0.07403848
-0.27968863 -0.17427813 -0.19836155 0.15000467 -0.21055521 0.14037372 -0.17441086 -0.07639691
-0.20449062 -0.086507924 0.0122433165 0.055491976 0.0041115605 -0.14107682 0.079875685 -0.14982295
-0.05766268 0.009839152 -2.118767e-05 -0.18129487 -0.22719432 -0.2509478 0.22665045 -0.06324253
0.0626815 0.027165776 -0.029162794 -0.027242325 -0.33250326 -0.3087103 -0.24560769 -0.024570908
-0.04932277 0.11088533 -0.2468697 -0.1161075 0.035884645 0.19445746 -0.057844684 -0.058681622
0.08584047 0.1656377 -0.019631745 -0.12483549 -0.06367597 0.09754069 0.056728 -0.030733118

classifier.5.bias f4 [10]
00000000: 1f1a 093b a858 12be 6c23 043d 2682 df3d
00000010: 4134 8d3d f884 ccbc b166 223c 0011 d4bd
00000020: 878e 7d3d 4c45 6f3b
0.002092011 -0.14291632 0.032260343 0.10913496 0.06894732 -0.024965748 0.009912179 -0.10354805
0.061903503 0.003650981
