quant_model_statedict.pt (torch, 70697 bytes, 5 tensors)

features.0.bias f4 [6]
000000 1e da fa 3e a6 01 ad be ad e4 43 3e 1b 75 07 3d
       0.48994535 -0.3379032 0.19130202 0.033070665
000010 67 0d 9b 3d 15 75 b9 be
       0.07570916 -0.3622214

features.3.bias f4 [16]
000000 ba 72 c0 bc 9e af 06 be 01 d1 46 bd 2f 0f 50 bd
       -0.023492206 -0.1315293 -0.048539165 -0.05079573
000010 f8 e8 62 3b be 65 df 3d 13 fa d7 3d 3b af 3c bb
       0.0034623723 0.10908078 0.10545745 -0.002879097
000020 67 95 8c 3c ca 62 a8 bd 83 b1 8b bc e9 09 86 bc
       0.017161084 -0.082219675 -0.017052418 -0.016362147
000030 5d d7 6c bd f8 d2 a4 3d e0 55 be bd dd 2d 2a be
       -0.057822574 0.080480516 -0.09293723 -0.16619058

cpu f4 [120]
000000 56 18 88 bd 55 66 cd 3c 38 bd 9b 3a a3 a0 02 3d
       -0.06645267 0.02507321 0.0011881953 0.031891476
000010 4c cb 62 bd 47 e1 cb b9 e0 92 02 3d 16 5e 64 bc
       -0.05536966 -0.00038887022 0.031878352 -0.013938447
000020 d5 ec a1 bc 7a 78 3d bc 1f 8a 51 bd c5 25 e1 bc
       -0.01976625 -0.011564368 -0.051157113 -0.02748383
000030 78 49 53 bd 69 64 08 bd 86 01 88 bc 8b 23 0d 3b
       -0.051583737 -0.033298884 -0.016602289 0.0021536078
000040 7b b7 81 3b 07 19 0e 3e 86 3b 93 3c 16 de 3a 3b
       0.00395864 0.13876735 0.017972719 0.0028513721
000050 f3 1c 02 bd 45 31 05 3d 65 65 8f bb bd db da 3d
       -0.03176589 0.03251769 -0.004376101 0.10686443
000060 92 2c e0 bc ec c3 86 bd 3d 64 3e bd a7 1a 00 bd
       -0.027365003 -0.06580338 -0.046482313 -0.031275418
000070 97 ea 2d 3d 3d 3d 55 bb ab 78 c1 bc cb 55 b3 3d
       0.04246005 -0.0032537722 -0.02361711 0.08756598
000080 7a 2e b4 bd 16 8f bf 3d 00 7f 8e 3d 01 8d 2d bd
       -0.08797927 0.09353463 0.06957817 -0.0423708
000090 0f 0f ce bd 40 9e e3 3d a7 0f 9f 3d 89 24 06 bd
       -0.10061466 0.11114168 0.07766657 -0.032749686
0000a0 da ef c3 3c 05 91 11 3e 9c cc c7 3c a0 18 19 3d
       0.023918081 0.14215477 0.024389558 0.037377
0000b0 d4 27 18 bd d0 ca dd bc c9 eb 94 bc 9d 7c bc bd
       -0.037147358 -0.027074248 -0.018178837 -0.092034556
0000c0 05 2a 9e 3d 25 22 44 bd 0b a4 ba 3c 0e 69 a1 bc
       0.07722858 -0.047884125 0.0227833 -0.019703414
0000d0 d7 7e ba 3d b0 36 92 bc 22 eb 24 3d 7c 2f ca 3d
       0.09106224 -0.017848343 0.040263303 0.09872338
0000e0 97 3f 68 3d 72 ac 82 bd 53 c3 b6 bc 0b 01 1d 3d
       0.05670127 -0.063805476 -0.022309935 0.038331073
0000f0 28 cf 80 bd fb 94 8d 3b 06 6b 7b bd a7 9d 07 be
       -0.06289512 0.0043207384 -0.061381362 -0.13243733
000100 db 1a 59 3b 4a b5 38 3e b2 c1 df 3d 23 9b ef bc
       0.003312758 0.18037906 0.10925616 -0.02924878
000110 a9 d4 ea 3d 66 e2 1c be c5 a4 a2 bd 54 5c 6e bd
       0.11466343 -0.15320739 -0.079415835 -0.05819352
000120 ff 10 bf 3d f2 7d 47 bd ea 61 bc bc 1a c7 f5 3b
       0.093294136 -0.048704095 -0.022995908 0.0075005414
000130 26 65 8c bd de 47 03 3e af 3b 09 3d 72 82 f1 3b
       -0.0685523 0.12820384 0.033504184 0.0073702866
000140 1f cd d3 3b 39 4a 2c 3c 31 25 f4 3d bc 38 a2 3d
       0.0064636613 0.010515743 0.11921156 0.079209775
000150 39 d4 98 bc f3 81 09 3d 4c 1e a0 3d 93 3b 95 3a
       -0.018655883 0.033571195 0.07818279 0.0011385552
000160 8c 37 6c 3c e0 dd 90 3c 5f 0d 0d 3c cc 3c c7 bd
       0.01441754 0.017683923 0.008609145 -0.09728393
000170 06 f9 b1 3d c1 74 08 3e 30 24 c9 bc ca 14 49 bd
       0.086900756 0.13325788 -0.024553388 -0.04909209
000180 ed 7f a5 bc 8c 7c ad 3d 8c ef 7f bd 9e 7b b7 bc
       -0.020202601 0.08471021 -0.06248431 -0.022397812
000190 e8 d7 e4 3c c9 55 9a 3d 09 99 7b bc 89 61 70 3d
       0.027934983 0.075358935 -0.015356311 0.058686767
0001a0 1f 96 84 bd 82 84 88 bd 38 a9 f2 bc e2 2c d0 bc
       -0.06473946 -0.06665899 -0.029621705 -0.025412027
0001b0 d0 4b 3b bc 85 c3 c0 bd 38 cc a3 bc 5f b1 11 3d
       -0.011431649 -0.094122924 -0.01999484 0.035569545
0001c0 13 27 2c bc 8e 94 4b 3d 59 72 28 3b 55 0d ba 3d
       -0.010507363 0.04970222 0.0025702922 0.09084574
0001d0 68 47 50 bd 99 30 bf bc fd 8e 9a 3d 3d d9 9b bd
       -0.05084935 -0.023338603 0.07546804 -0.07609794

cpu f4 [84]
000000 f3 e2 d3 3c 80 3d 10 3d 6b 5e 07 bb 6d 21 ff 3c
       0.025865054 0.0352149 -0.0020655643 0.031143868
000010 b3 22 1e 3c 37 3a 6e 3d 38 57 0c 3e 5a f4 a0 3d
       0.009651828 0.058160987 0.13705146 0.07859106
000020 ec 0d 8b bd 52 a9 d4 bd 2b 38 a4 bd 8e 3f e0 3c
       -0.06789765 -0.10383858 -0.08018526 0.027374055
000030 15 b9 3c 3e 4e f5 17 3d 7f b0 2e 3e b6 16 94 bd
       0.18429978 0.037099175 0.17059515 -0.07230894
000040 c0 90 c7 3d 48 63 98 3b a1 aa 16 3e 68 2f c6 bd
       0.09744406 0.004650507 0.14713527 -0.09677011
000050 e5 a4 b7 bc 5d a7 5e bd 28 9e 0e bd c0 37 7d 3d
       -0.022417495 -0.05435883 -0.0348188 0.061820745
000060 60 e3 ae bd 19 e0 1b 3d cc 28 8d bd 44 31 a5 3c
       -0.08539462 0.038055513 -0.06892547 0.020165093
000070 b5 14 ed 3d 34 83 16 be 26 5b 16 3e 6b 18 5f bd
       0.11576215 -0.14698488 0.14683208 -0.054466646
000080 55 cf 09 3e d8 ec 14 3e 27 b5 d5 3c 46 42 c2 bd
       0.13457997 0.14543474 0.026087357 -0.09485297
000090 47 80 4e 3d aa 31 a1 3d 43 2a 16 3e 0b 6a 6e 3c
       0.050415304 0.07870801 0.14664559 0.01455165
0000a0 37 a9 b8 bd 1d 86 d8 3d 8d 1b 1f bd 2f 42 6f bd
       -0.0901665 0.10572455 -0.038844634 -0.058412727
0000b0 2f 0f f1 3c d6 f2 80 bd f2 fd 05 3c 34 d6 d5 3d
       0.029426185 -0.06296317 0.008178221 0.10441247
0000c0 75 c7 6b 3c a4 67 0a 3e 9f 4a fe bd 9e d5 45 bc
       0.014390816 0.13516098 -0.124165766 -0.012074856
0000d0 c0 f3 d1 bd 20 c1 80 bd f6 3c af bd 4a 64 16 3d
       -0.1025157 -0.06286836 -0.08556549 0.036716737
0000e0 dc bb 34 3c f1 3e 21 3b 2a 6e 07 bd 30 1b 30 3e
       0.011031117 0.0024604166 -0.033064045 0.17197871
0000f0 37 54 24 bd 5c d3 78 bc a2 8b 0a bd 77 70 69 3e
       -0.040119376 -0.015187111 -0.03382457 0.22796808
000100 27 80 19 bd ab 1b 71 bb b8 15 cc 39 c2 72 b8 bd
       -0.03747573 -0.0036790173 0.00038926094 -0.09006263
000110 d2 d0 57 3c 59 06 ff bd 03 21 88 bd bc 77 8a bd
       0.013172345 -0.124523826 -0.066469215 -0.06761119
000120 5d 9c 54 bb ce 95 06 be cb 0c bd bb bb c4 cb 3c
       -0.0032441833 -0.13143083 -0.0057693473 0.024874082
000130 8f 8a c5 3c 5f 34 22 3e 84 0e 7e bd 9f 06 b1 bd
       0.024113921 0.1584029 -0.062025562 -0.08643841
000140 90 7f 88 b9 bb 03 f6 3c b8 10 9a bc fd 2c 15 be
       -0.00026034983 0.030031076 -0.0188068 -0.14567943

cpu f4 [10]
000000 1f 1a 09 3b a8 58 12 be 6c 23 04 3d 26 82 df 3d
       0.002092011 -0.14291632 0.032260343 0.10913496
000010 41 34 8d 3d f8 84 cc bc b1 66 22 3c 00 11 d4 bd
       0.06894732 -0.024965748 0.009912179 -0.10354805
000020 87 8e 7d 3d 4c 45 6f 3b
       0.061903503 0.003650981
